research/link_predictor_model.pth (torch, 243502 bytes, 9 tensors)

fc1.weight f4 [256, 64]
0	0x3df6407c	0.12024018
1	0x3d2c88b2	0.04212255
2	0x3dfe484f	0.124161355
3	0xbdfb7dda	-0.12279864
4	0x3d208f51	0.039199177
5	0x3bfafd13	0.0076595633
6	0xbd7ad7e5	-0.06124105
7	0xbd97dcf2	-0.07415189
8	0xbe0456cf	-0.1292374
9	0xbdd66830	-0.10469091
10	0x3d54ad58	0.051923126
11	0xbc223882	-0.009901168
12	0x3cfc50d9	0.03080027
13	0x3e385e91	0.18004824
14	0x3ddbd4ec	0.10733971
15	0xbdab1e0d	-0.08355341
16	0x3b9b5dc5	0.004741403
17	0x3d761eb0	0.06008786
18	0x3e0af7d1	0.13571097
19	0xbd1439d2	-0.036187954
20	0x3c4ac944	0.012377087
21	0x3d42d2c4	0.047564283
22	0xbb115cec	-0.002218063
23	0x3dd886f2	0.10572614
24	0x3da3bf64	0.07995489
25	0x3da9580b	0.08268746
26	0xbe063144	-0.13104731
27	0x3dbd7250	0.09250319
28	0x3d09aa04	0.033609405
29	0xbe083fdd	-0.13305612
30	0xbca04fc0	-0.019569278
31	0x3c619d42	0.013770403
32	0x3b0f64e2	0.00218802
33	0x3db332f9	0.08749957
34	0x3d389b0f	0.04506975
35	0x3d4b1162	0.049577124
36	0x3b93d1cd	0.004511094
37	0xbd13ac6b	-0.036053102
38	0x3c1edcca	0.009696195
39	0xbd581e5e	-0.052763335
40	0x3e1d279b	0.1534714
41	0x3d7de9fb	0.06199072
42	0xbc96f57c	-0.018427603
43	0x3db46f88	0.088103354
44	0x3bf48b01	0.0074628596
45	0x3cbee3c3	0.023301965
46	0x3d83afb8	0.0643
47	0x3cb24e6b	0.021765908
48	0xbd884434	-0.06653634
49	0xbe061cfd	-0.13096996
50	0xbda85127	-0.082186036
51	0xbe0024ff	-0.12514113
52	0xbda770d4	-0.08175817
53	0x3d66a70e	0.05631166
54	0xbdf54b89	-0.11977298
55	0xbd530f70	-0.051528394
56	0x3d3bde47	0.045866277
57	0xbd7acd60	-0.061231017
58	0xbda0cd20	-0.078516245
59	0xbb8cd293	-0.0042975633
60	0xbd2aeab6	-0.041727744
61	0xbb45841f	-0.0030138565
62	0xbc6f4639	-0.014604145
63	0x3de4fa44	0.11180547
64	0xbe1a9c31	-0.15098645
65	0x3d5a916e	0.05336135
66	0x3c9b6d95	0.018973151
67	0x3b87d66f	0.0041454355
68	0x3ded7360	0.11594272
69	0x3d87953c	0.06620261
70	0x3d41dc9a	0.047329523
71	0xbdba2bea	-0.09090407
72	0xbd1235e0	-0.03569591
73	0x3dadff30	0.08495939
74	0x3e14c521	0.14528324
75	0xbdc5b1c6	-0.09653048
76	0x3d031149	0.031998906
77	0x3da1536e	0.07877241
78	0xbd2de1ba	-0.042451598
79	0xbd68067b	-0.056646805
80	0x3d3448f7	0.044014897
81	0x3ce70ce6	0.028204393
82	0x3d17c512	0.037053175
83	0xbd5b58da	-0.053551532
84	0x3cd3b229	0.02584179
85	0xbb1c489a	-0.0023846985
86	0x3d93e67c	0.07221696
87	0x3e383f1a	0.17992821
88	0xbd121392	-0.035663195
89	0xbd9b002d	-0.07568393
90	0xbe06513b	-0.13116924
91	0xbdb4433a	-0.08801885
92	0x3ca072bf	0.019585965
93	0x3e1a464a	0.15065876
94	0xbdd51e71	-0.10406197
95	0x3dcfc9f9	0.10145945
96	0x3c0c5a55	0.008566459
97	0x3dd8b8e7	0.10582142
98	0xbc850966	-0.016239833
99	0x3d85fe82	0.06542684
100	0x3e3976fc	0.18111795
101	0xbdb04755	-0.086073555
102	0x3d8ffcda	0.070306495
103	0xbdc8ac31	-0.09798468
104	0xbe07499b	-0.13211672
105	0x3d8aa734	0.06770173
106	0xbdbd1167	-0.09231835
107	0xbd820407	-0.063484244
108	0x3a5a5bdc	0.0008329728
109	0xbd10aa1f	-0.03531849
110	0x3d83086a	0.06398089
111	0xbcd34e67	-0.025794221
112	0x3d74510b	0.0596476
113	0xbd4ece38	-0.050489634
114	0x3dcb7d1a	0.099359706
115	0x3c97a814	0.018512763
116	0x3dc27b5d	0.09496186
117	0x3db4e9f2	0.08833684
118	0xbd85568d	-0.06510649
119	0x3d9e2c59	0.077233024
120	0xbdeb8374	-0.11499682
121	0x3b8fc607	0.0043876204
122	0x3e1709c6	0.14749822
123	0xbc9b4973	-0.018955922
124	0xbc2b6201	-0.010460378
125	0x3da2956b	0.079386555
126	0xbe0402cf	-0.12891696
127	0x3de1a2de	0.110173926
128	0xbda24ed7	-0.07925194
129	0xbd8f008b	-0.069825254
130	0xbddc6821	-0.107620485
131	0xbd8d41d4	-0.06897321
132	0xbda7bf05	-0.08190731
133	0x3e015910	0.12631631
134	0xbdb2ebf7	-0.08736413
135	0x3d6de405	0.058078784
136	0x3dd3caa4	0.10341385
137	0xbc596e82	-0.013270976
138	0x3cb079d9	0.021542476
139	0x3e1d82c4	0.15381914
140	0xbd1a220f	-0.037630137
141	0xbd0baf98	-0.034103006
142	0x3d1eb812	0.038749762
143	0xbcee3add	-0.029080803
144	0x3e1403e6	0.14454612
145	0x3c8177c2	0.015804175
146	0x3c42d1dd	0.011890856
147	0xb9c4a90b	-0.0003750998
148	0x3d3a900e	0.045547538
149	0x3dd93d06	0.106073424
150	0xbdb0437c	-0.086066216
151	0xbe176f9b	-0.14788668
152	0x3d5d4fd7	0.05403122
153	0xbda4ba57	-0.08043354
154	0x3d47dd63	0.048795115
155	0x3d724045	0.059143323
156	0xbdd18763	-0.10230901
157	0x3d816940	0.06318903
158	0x3d1d795c	0.038445815
159	0x3cfec748	0.031100884
160	0xbdff4b9e	-0.12465595
161	0x3cf38b5e	0.029729541
162	0xbdac40c8	-0.084107935
163	0x3dd1740e	0.10227214
164	0xbd8efc39	-0.069817014
165	0x3d0d760f	0.034536418
166	0x3c8c52a8	0.017129257
167	0xbe00a768	-0.1256386
168	0xbdf58882	-0.119889274
169	0x3dfdb51b	0.12388059
170	0x3e22658e	0.15859053
171	0x3da0db0f	0.07854282
172	0x3b4bac91	0.00310782
173	0xbd9686a5	-0.073499
174	0x3d9b2368	0.075751126
175	0xbd2fc88a	-0.04291586
176	0x3d6e5a0c	0.058191344
177	0xbbe09a6f	-0.0068543474
178	0xbd110634	-0.035406306
179	0xbd4cee98	-0.05003223
180	0xbc4d0b2f	-0.012514873
181	0xbbfcb7e8	-0.007712353
182	0x3d8b4ca2	0.06801726
183	0xbdffcc6c	-0.12490162
184	0xbc8224d0	-0.015886694
185	0x3dc5b266	0.096531674
186	0x3d73e494	0.05954416
187	0x3db1c905	0.086809196
188	0x3d50b878	0.050957173
189	0xbe159670	-0.14608169
190	0x3d8e0cc7	0.06936031
191	0xbcc18979	-0.023625122
192	0xbce1e369	-0.027574258
193	0xbd9c4410	-0.076301694
194	0xbde431eb	-0.111423336
195	0xbe222368	-0.15833819
196	0x3e18910d	0.14899082
197	0x3e0df2d6	0.13862166
198	0xbda9cbc7	-0.082908206
199	0xbe087810	-0.1332705
200	0x3e10a518	0.14125478
201	0x3da88c45	0.08229879
202	0x3d0d6855	0.034523327
203	0x3d185ab8	0.03719589
204	0x3da423a4	0.080146104
205	0x3d6cf13b	0.057847243
206	0xbe278680	-0.16359901
207	0xbda6ee7a	-0.081509545
208	0x3d191cd2	0.037381
209	0x3d804c0c	0.06264505
210	0xbbe2daed	-0.0069230706
211	0xbdaaafd2	-0.08334316
212	0xba3005aa	-0.0006714711
213	0x3d764f61	0.060134295
214	0x3deee1f5	0.11664192
215	0x3de33333	0.1109375
216	0xbe071a19	-0.13193549
217	0x3e382cc0	0.17985821
218	0x3d729ba0	0.059230447
219	0xbe06fc4c	-0.13182181
220	0x3e1609ab	0.14652126
221	0xbd444255	-0.04791482
222	0xbc2c2f2d	-0.010509294
223	0x3cb0924a	0.021554131
224	0xbcf54995	-0.029942313
225	0xbdc7c1f5	-0.09753791
226	0xbcbdeb1f	-0.023183404
227	0xbd93de2f	-0.072201125
228	0x3d915ea5	0.0709813
229	0xbe079b6f	-0.13242887
230	0xbc0263d1	-0.007958368
231	0xbc1270d8	-0.008938037
232	0xbd814a7b	-0.06313034
233	0xbca05206	-0.019570362
234	0xbe0e5a8d	-0.1390173
235	0xbce66aaa	-0.028127033
236	0x3b9e57de	0.004832252
237	0xbd4e04b6	-0.05029746
238	0xbe01295d	-0.12613435
239	0x3d992660	0.074780226
240	0xbd124d09	-0.035717998
241	0x3d3bd73a	0.045859553
242	0xbd19dfef	-0.037567075
243	0x3c54a91e	0.012979774
244	0xbb4de351	-0.0031416009
245	0x3e08be67	0.13353883
246	0x3ca32928	0.019917086
247	0xbcbf72fa	-0.023370255
248	0xbd36ce7f	-0.044630524
249	0x3bff5d85	0.007793131
250	0xbd72860d	-0.059209872
251	0x3daf25f4	0.08552161
252	0x3d4531a3	0.04814304
253	0x3e2a7ddc	0.16649574
254	0xbd5774a8	-0.052601486
255	0xbc6a2531	-0.014291094

fc1.bias f4 [256]
0	0x3d36609f	0.04452574
1	0x3d0e3688	0.034719974
2	0xbdc22cc5	-0.09481195
3	0xbe391030	-0.18072581
4	0xbc8f04f4	-0.017458417
5	0xbd474656	-0.048651062
6	0xbe3d5ce1	-0.18492462
7	0xbd32d711	-0.043662135
8	0xba724421	-0.00092417194
9	0xbdaf4899	-0.08558769
10	0xbd9177b2	-0.07102908
11	0xbdaa9e26	-0.08330946
12	0xbd3aaf5f	-0.045577403
13	0xbdfb963e	-0.12284516
14	0xbe5eb2a4	-0.21747833
15	0x3caad463	0.020853227
16	0xbd5e79f8	-0.054315537
17	0xbd86bc45	-0.06578878
18	0xbd96744f	-0.07346403
19	0x3cd72a1e	0.0262652
20	0xbdb0bdf7	-0.08629983
21	0x3ca68a36	0.020329576
22	0xbd1b97d4	-0.03798659
23	0xbd85b410	-0.06528485
24	0x3c9136e4	0.01772637
25	0xbd9a9a5f	-0.07548975
26	0x3d48d796	0.049033724
27	0xbe2d89da	-0.16947117
28	0xbe64a405	-0.22328193
29	0x3cf90dc7	0.030402077
30	0xbdc5566e	-0.09635626
31	0x3d05117b	0.032487374
32	0xbdd1574a	-0.10221727
33	0xbd1cfe26	-0.038328312
34	0x3dcf1686	0.10111718
35	0x3acb2a08	0.0015500197
36	0x3cbd520a	0.023110408
37	0xbde12a5a	-0.10994406
38	0xbe0de4df	-0.13856839
39	0xbe0af1cb	-0.13568799
40	0xbe0117ef	-0.12606786
41	0xbd8cf055	-0.06881777
42	0x3dbe2144	0.09283689
43	0xbdd486c3	-0.10377266
44	0x3d88af34	0.06674042
45	0xbd6335e0	-0.0554713
46	0xbd271189	-0.040788207
47	0xbe4eb6a7	-0.20186864
48	0xbe2a0a0d	-0.16605397
49	0x3d32ecd8	0.043682903
50	0xbe1bd643	-0.15218453
51	0xbdc0ded7	-0.09417503
52	0xbd6bb77a	-0.057548024
53	0x3d4bf957	0.049798336
54	0x3d90432f	0.07044064
55	0x3dc50851	0.09620727
56	0xbd4e71b6	-0.050401412
57	0xbd4588d5	-0.048226196
58	0x3d88fb0d	0.06688509
59	0xbbf25b5c	-0.007396145
60	0x3dbf5715	0.093427815
61	0x3c8437f8	0.01613997
62	0xbcc2bd65	-0.023771951
63	0xbd98e9e4	-0.07466486
64	0xbd6e9007	-0.058242824
65	0xbd860321	-0.065435655
66	0xbdd14677	-0.10218518
67	0x3d2ca217	0.04214677
68	0xbd903bbb	-0.07042643
69	0xbd2bf183	-0.04197837
70	0xbe24a3fc	-0.1607818
71	0xbe346be8	-0.17619288
72	0xbe011413	-0.12605314
73	0xbe0b053b	-0.13576214
74	0xbd1c60b9	-0.03817818
75	0xbda127ae	-0.078688964
76	0xbd839d8c	-0.06426534
77	0xbdcc6e3d	-0.09981964
78	0xbd9ef35a	-0.077612594
79	0xbde5678c	-0.112013906
80	0x3bdef154	0.006803671
81	0xbaca1457	-0.0015417439
82	0xbdf25a7d	-0.118336655
83	0xbd9107d3	-0.070815705
84	0xbc64034c	-0.013916802
85	0xbe414b4b	-0.18876378
86	0xbcf13e9a	-0.029448796
87	0xbe148f4b	-0.14507787
88	0xbe14b771	-0.14523102
89	0x3df8fd1f	0.12157654
90	0xbc2c09fe	-0.010500429
91	0xbd26ea20	-0.040750623
92	0x3d718436	0.058963977
93	0xbe1029f5	-0.14078505
94	0xbdad5c86	-0.08464913
95	0xbd320591	-0.04346234
96	0x3cd2b0a6	0.025718998
97	0xbb2fe79c	-0.002684093
98	0x3c6123c2	0.0137414355
99	0x3c211722	0.009832175
100	0xbe25ca15	-0.1619037
101	0xbb82539d	-0.0039772526
102	0xbdc1c502	-0.094614044
103	0x3cc7eaad	0.024403894
104	0xbb2438f6	-0.0025058365
105	0xbe1ca0b7	-0.15295683
106	0xbe0418c0	-0.12900066
107	0xbdebf29c	-0.115208834
108	0xbe43ad50	-0.19109082
109	0xbd9dcc28	-0.07704955
110	0xbe0b57e5	-0.13607748
111	0xbc3cc1e8	-0.01152084
112	0x3d2b405d	0.04180943
113	0x3c15b729	0.009137907
114	0x3b19057a	0.0023349212
115	0xbdf41bc3	-0.11919358
116	0x3db2965d	0.08720086
117	0x3d906e09	0.070522375
118	0xbde62632	-0.11237754
119	0xbd7a0751	-0.061042134
120	0xbd4153e3	-0.04719914
121	0x3e0f55e9	0.13997616
122	0xbe14dfe1	-0.14538528
123	0x3c46abd1	0.012125925
124	0x3c9d47ed	0.019199336
125	0x3b3511b2	0.0027628955
126	0x3d1b85a5	0.03796925
127	0xbcb525c3	-0.022112733
128	0xbd65aa3a	-0.056070544
129	0x3c03c991	0.008043663
130	0xbaf48f9b	-0.001865852
131	0x3e1631ac	0.14667386
132	0xbe555036	-0.2083138
133	0xbdc8f67c	-0.09812638
134	0xbc22a32a	-0.009926597
135	0xbd9ed5bd	-0.07755611
136	0x3d7a683b	0.06113456
137	0xbe097538	-0.13423622
138	0xbdcf94aa	-0.10135777
139	0xbd8e3b29	-0.06944878
140	0x3da82790	0.08210671
141	0xbd010e49	-0.031507764
142	0xbcb895d0	-0.022532374
143	0x3d7eb4f4	0.06218429
144	0xbccb3c5f	-0.02480906
145	0x3c8ace18	0.016943976
146	0xbb96feea	-0.004608025
147	0x3ca70aff	0.020390986
148	0xbc635b79	-0.013876789
149	0xbd879f30	-0.066221595
150	0xbdf9f6be	-0.122052655
151	0xbe614b5e	-0.22001407
152	0xbe1c6d8c	-0.15276164
153	0x3c538201	0.012909413
154	0xbe516fd4	-0.20452815
155	0x3cd0a955	0.025471369
156	0x3ce1040d	0.027467752
157	0x3ca92d4e	0.020651486
158	0xbdfc0bb4	-0.1230692
159	0xbd5e8d1e	-0.0543338
160	0xbc7e55d4	-0.015523393
161	0xbdedf5a5	-0.116191186
162	0xbdbe6bce	-0.09297906
163	0xbe074b94	-0.13212425
164	0xbd9acb0d	-0.0755826
165	0xbb8812c3	-0.004152627
166	0xbe1b5408	-0.15168774
167	0xbe563ac8	-0.20920861
168	0xbd3e32a8	-0.04643503
169	0xbdcfe467	-0.10150986
170	0x3cd7ff92	0.026366983
171	0x3b6422ef	0.003481086
172	0xbe05c872	-0.13064745
173	0xbd855d94	-0.06511989
174	0xbc8cefa5	-0.017204115
175	0x3d6e1863	0.058128726
176	0xbd352afc	-0.044230446
177	0xbd323edc	-0.04351698
178	0xbde47425	-0.11154965
179	0x3dc70c06	0.0971909
180	0xbd81700a	-0.06320198
181	0xbdc0461d	-0.09388373
182	0xbdce3fe1	-0.10070778
183	0xbe15c074	-0.14624196
184	0xbe37bba9	-0.1794268
185	0xbe2e059a	-0.16994324
186	0x3da28d95	0.07937161
187	0xbe1c78e1	-0.15280487
188	0xbd2fd9f1	-0.042932454
189	0xbe2682c1	-0.16260816
190	0xbddcd5ae	-0.10782944
191	0xbe117090	-0.14203095
192	0xbe25a7bd	-0.16177268
193	0xbb13f497	-0.0022576207
194	0xbd870e35	-0.06594507
195	0x3d3c39b6	0.045953475
196	0xbd2fa4b2	-0.042881675
197	0xbdc69a32	-0.09697379
198	0xbbb10f90	-0.0054034665
199	0x3d222dbd	0.0395944
200	0x3d019dd7	0.03164467
201	0xbda39c18	-0.07988757
202	0xbcab19a5	-0.020886252
203	0x3bf79af9	0.007556316
204	0x3d108bc9	0.03528956
205	0xbe1cb210	-0.153023
206	0xbe2167fc	-0.15762323
207	0xbdf69e38	-0.120418966
208	0xbdca5d7c	-0.09881112
209	0xbd445cc2	-0.047940023
210	0xbe009b5d	-0.12559266
211	0xbcf3f1ce	-0.029778387
212	0xbcdf6b3d	-0.027272815
213	0xbe710952	-0.23538712
214	0xbc4c874d	-0.01248343
215	0x3cb42f1a	0.021995116
216	0xbe3ec151	-0.18628432
217	0xbd4c4207	-0.049867656
218	0x3d18b0d3	0.037278008
219	0xbe19fd2c	-0.15037984
220	0xbdb23d21	-0.08703066
221	0xbe591d4b	-0.2120258
222	0xbde0a530	-0.10969007
223	0xbda9c177	-0.082888536
224	0x3d6c5f53	0.057708096
225	0x3d8ea3f5	0.06964866
226	0xbe67dd8e	-0.2264311
227	0x3d1b5303	0.037920963
228	0x3a180a82	0.00057999056
229	0xbe0412d6	-0.1289781
230	0xbdb44c4a	-0.088036135
231	0x3d966bee	0.07344805
232	0xbc0eac70	-0.0087081045
233	0xbe028105	-0.1274453
234	0xbdd5fd11	-0.10448659
235	0xbd431498	-0.04762706
236	0xbcc6690f	-0.024220018
237	0x3da155bb	0.0787768
238	0xbc42343f	-0.011853277
239	0xbe04bbb7	-0.12962233
240	0xbe01493d	-0.12625594
241	0x3dc8ee75	0.09811107
242	0x3dbe028b	0.09277829
243	0xbdea14a4	-0.11429718
244	0xbe0d0a34	-0.13773423
245	0xbd78d01f	-0.060745355
246	0xbd098179	-0.03357074
247	0xbd75a460	-0.059971213
248	0xbde095e5	-0.1096609
249	0x3dbd011e	0.09228729
250	0xbd664ca1	-0.056225423
251	0x3d30fb5b	0.04320846
252	0xbdc1ead9	-0.09468622
253	0xbd97d5d2	-0.0741383
254	0xbe262436	-0.16224751
255	0xbe222dd0	-0.15837789

fc2.weight f4 [128, 256]
0	0x3d04364e	0.03227835
1	0x3d33b40a	0.04387287
2	0xbd41ade7	-0.047284987
3	0xbb041375	-0.00201532
4	0xbd5bcbe2	-0.053661235
5	0x3cbae54d	0.022814417
6	0x3bbc2098	0.00574119
7	0x3d3c0edc	0.04591261
8	0x3d308cf3	0.04310317
9	0xbcf6b994	-0.030117787
10	0xbcea4801	-0.028598787
11	0x3d26e61a	0.040746786
12	0x3d485034	0.048904613
13	0x3d863506	0.06553082
14	0x3ce8db2f	0.028424827
15	0xbd2db231	-0.042406265
16	0xbc8d6865	-0.017261693
17	0x3cdb2fbb	0.026756158
18	0x3d2dbf88	0.042418987
19	0xbd1b2ec4	-0.037886396
20	0x3c07eb5b	0.008295859
21	0x3c8bc552	0.017061863
22	0x3d813199	0.06308288
23	0xbbcbbaaa	-0.0062173204
24	0x3dcebc62	0.10094525
25	0x3d2b307a	0.041794278
26	0x39a85de0	0.000321134
27	0x3d1ca6e1	0.038245086
28	0x3d932a8b	0.07185849
29	0xbd5cdceb	-0.05392162
30	0x3d6c5e58	0.05770716
31	0x3cb632e2	0.02224106
32	0x3d9d3660	0.07676387
33	0x3cd30bc6	0.02576245
34	0xbda672dd	-0.08127377
35	0xbc3aed81	-0.011409164
36	0x3d5bd2da	0.05366788
37	0x3d844998	0.064593494
38	0x3dcb61d7	0.09930771
39	0xbd760562	-0.060063727
40	0xbb49444a	-0.003071087
41	0xbd495972	-0.049157567
42	0xbd3d1f92	-0.046172686
43	0xbced9f35	-0.02900658
44	0x3d6ecf76	0.05830332
45	0xbd0a05c3	-0.0336969
46	0x3ce23464	0.027612872
47	0xbd7c36dc	-0.061575755
48	0xbd4dcd3c	-0.050244555
49	0xbd2c0a13	-0.042001795
50	0x3c386cfd	0.011256454
51	0xbcefacf1	-0.02925727
52	0xbceab716	-0.028651755
53	0xbe0546ac	-0.1301524
54	0xbcfeaa00	-0.031086922
55	0x3cb1dfa9	0.021713095
56	0xbd6d1587	-0.05788186
57	0xbc46b25e	-0.012127487
58	0x3d59af22	0.053145535
59	0x3d073151	0.033006016
60	0xbc743928	-0.014906205
61	0xbc588e44	-0.0132175125
62	0x3d697e58	0.057005256
63	0xbd388cc0	-0.045056105
64	0xbd224ba1	-0.039622907
65	0x3d4d28c9	0.050087724
66	0x3d8d8b96	0.069113895
67	0xbc2a4216	-0.010391733
68	0x3cc2dbc2	0.02378643
69	0x3d8204b2	0.06348552
70	0x3cced92c	0.02525004
71	0x3dae03a6	0.0849679
72	0xbdc4ec91	-0.09615434
73	0xbc5d2fc5	-0.013500159
74	0xbc97baf8	-0.01852177
75	0x3d140ec0	0.03614688
76	0xb9713792	-0.00023004253
77	0x3da830c9	0.0821243
78	0xbd5f6470	-0.054539144
79	0xbc0d78e6	-0.008634781
80	0x3ce9b43d	0.028528327
81	0xbdafc454	-0.085823685
82	0x3ca5d171	0.020241471
83	0x3d6ff2ca	0.05858115
84	0x3d172c97	0.03690776
85	0xbbe8eb15	-0.007108102
86	0xbce2f022	-0.027702395
87	0x3db0788a	0.08616741
88	0x3cdad9d3	0.026715195
89	0xbd0b04bf	-0.033940073
90	0x3d33d702	0.04390622
91	0x3ce7c95b	0.028294256
92	0xbd02b474	-0.031910375
93	0x3d24fc42	0.040279634
94	0xbbb909e3	-0.0056469305
95	0x3cc4da7c	0.024029963
96	0x3c574023	0.01313785
97	0x3bc28898	0.0059366934
98	0x3d30fc11	0.04320914
99	0xbd696d4f	-0.05698901
100	0xbbdb28da	-0.0066882195
101	0xbe12c933	-0.14334564
102	0x3cef0786	0.029178392
103	0x3ce8b40f	0.028406171
104	0xbcb2ac16	-0.021810573
105	0xbd7a3598	-0.061086267
106	0x3d262abb	0.040568095
107	0x3c14b61c	0.009076621
108	0x3b832413	0.004002103
109	0x3d496c4d	0.04917555
110	0x3c908e92	0.017646108
111	0xbd02a16e	-0.031892233
112	0xbb8f4e78	-0.004373368
113	0xbcfd5a88	-0.030926958
114	0x3d2723ca	0.040805615
115	0xbdd207cd	-0.10255394
116	0x3be68ab8	0.0070355795
117	0xbcd181b3	-0.02557454
118	0xbd515078	-0.05110213
119	0x3cba25d9	0.022723125
120	0x3bd909a6	0.0066234646
121	0x3d5a95b4	0.053365424
122	0x3ce1227b	0.027482262
123	0xbc73d1f6	-0.014881602
124	0xbd86032e	-0.06543575
125	0xbda33f5c	-0.07971069
126	0xbcfb07cc	-0.030643366
127	0xbd4c238d	-0.04983859
128	0xbc4872b7	-0.012234381
129	0xbc296d23	-0.010340962
130	0xbd13e6ca	-0.03610877
131	0xbcd2c4e3	-0.025728649
132	0x3c1606de	0.009156911
133	0xbd621629	-0.055196915
134	0x3c78c4ce	0.015183641
135	0xbc30fbf6	-0.01080226
136	0x38e899fc	0.00011091304
137	0xbd987033	-0.07443275
138	0x3a75ad94	0.00093718735
139	0x3d8ff447	0.07029014
140	0x3cd2b878	0.025722727
141	0xbd7c9370	-0.061664045
142	0xbd392130	-0.045197666
143	0x3d75453c	0.05988048
144	0xbc42ddb8	-0.011893682
145	0xbd18db33	-0.03731842
146	0x3d3924c9	0.045201097
147	0x3d63bec0	0.055601835
148	0x3d9df809	0.077133246
149	0x3ca59640	0.020213246
150	0x3d2d7842	0.042351015
151	0x3c8ad8f4	0.016949154
152	0x3d02fc72	0.03197903
153	0xbd157a3f	-0.036493536
154	0x3c9e5d6d	0.019331658
155	0xbc526a69	-0.012842753
156	0xbc71cb21	-0.014757902
157	0x3c14ab6a	0.009074071
158	0xbd48386b	-0.04888193
159	0x3c305691	0.010762827
160	0xbd8744bf	-0.06604909
161	0xbca11d3b	-0.019667258
162	0x3daa5856	0.0831763
163	0x3d4e3651	0.05034477
164	0x3cba58b9	0.022747384
165	0xbc86a343	-0.016435271
166	0x3c1a59a0	0.009420782
167	0x3c9e6dbc	0.019339435
168	0x3b3f99f1	0.0029236043
169	0x3d531c14	0.05154045
170	0xbb37f8fb	-0.0028071988
171	0x3cb52000	0.022109985
172	0xbd2a29e0	-0.04154384
173	0x3c63f4c0	0.013913333
174	0x3d21d32b	0.039508026
175	0xbd36cdec	-0.044629976
176	0xbdcc2c2c	-0.099693626
177	0xbcd8eb3c	-0.026479356
178	0xbc825f6c	-0.015914641
179	0xbc61f09f	-0.013790279
180	0xbd447ac4	-0.04796864
181	0xbd6ad148	-0.057328492
182	0x3c2eecee	0.010676606
183	0x3c9db523	0.019251412
184	0x3dbca0c2	0.092103496
185	0x3d86cedd	0.06582425
186	0xbcccf63e	-0.025019761
187	0xb94c0cec	-0.0001945977
188	0xbca98e29	-0.02069767
189	0x3c0b393e	0.008497534
190	0x3da52610	0.080639005
191	0x3d26e472	0.040745206
192	0xbc967c6e	-0.01836988
193	0xbbb0fcb8	-0.00540122
194	0x3b9586bf	0.004563182
195	0x3cc0af01	0.023520948
196	0xbc889608	-0.016673103
197	0x3d4e0e46	0.05030658
198	0xbdc476ff	-0.09593009
199	0x3c3e3773	0.0116099
200	0xbd630aba	-0.05543015
201	0xbdb27d53	-0.0871531
202	0xbb59ff8c	-0.003326389
203	0x3bcfb00b	0.0063381246
204	0xbd902394	-0.07038036
205	0x3d997692	0.074933186
206	0xbc0051ca	-0.007832
207	0xbcae695f	-0.02129048
208	0xbd12a508	-0.035801917
209	0xbd1db6c0	-0.038504362
210	0x3bf293e7	0.0074028852
211	0x3d18c8bd	0.037300814
212	0x3d7d888b	0.061897796
213	0x3d9028a1	0.07038999
214	0x3da16807	0.0788117
215	0xbd2a598b	-0.0415893
216	0x3de41b78	0.11138052
217	0x3c936041	0.017990233
218	0xbd1e583f	-0.038658377
219	0xbd462107	-0.04837134
220	0x3d63672e	0.05551832
221	0x3d1a859b	0.037725072
222	0x3be7534e	0.0070594912
223	0x3d1eab9e	0.038737886
224	0x3c5766c3	0.013147059
225	0x3c0bf6d4	0.008542735
226	0xbd61a8cf	-0.05509263
227	0x3c939107	0.01801349
228	0x3c6fdcc1	0.014640034
229	0x3d0757e3	0.0330428
230	0xbc89a6ff	-0.016803263
231	0xbd6b652c	-0.057469532
232	0xbdea4b71	-0.114401706
233	0x3dadbd87	0.08483415
234	0xbb1e91de	-0.002419583
235	0xbd01b82a	-0.031669773
236	0x3d67795d	0.056512225
237	0xbca3e334	-0.0200058
238	0xbca65b4b	-0.020307204
239	0xbcd0a881	-0.025470974
240	0xbd295dcc	-0.041349217
241	0x3ce7127e	0.02820706
242	0x3b415dda	0.0029505403
243	0x3d25f812	0.04051978
244	0x3d32e079	0.043671105
245	0x3ccc0497	0.024904532
246	0x3d02c644	0.031927362
247	0xbd2ae057	-0.041717853
248	0x3cbb22df	0.022843776
249	0x3b97d8cc	0.0046339985
250	0xbc0ea82a	-0.008707086
251	0x3d84c122	0.0648215
252	0xbd6b28a2	-0.057411797
253	0x3d20284c	0.03910093
254	0xbcf11972	-0.029431079
255	0x3c55675a	0.013025129

fc2.bias f4 [128]
0	0xbcec4441	-0.02884114
1	0x3ce5ff00	0.028075695
2	0xbd2c24d4	-0.04202731
3	0xbccdef37	-0.02513848
4	0x3b035e0a	0.0020045065
5	0xbc42531a	-0.011860633
6	0xbc50d7c1	-0.012746752
7	0x3d812d5f	0.06307482
8	0xbdf6edce	-0.120570764
9	0xbdb9d5a7	-0.09073954
10	0xbd70ee9f	-0.058821317
11	0x3c8571e8	0.016289666
12	0x3b33a2bc	0.002741023
13	0x3dd94762	0.10609318
14	0xbd62ff9a	-0.055419542
15	0xbc63b2a5	-0.013897573
16	0x3df523f1	0.11969746
17	0xbda8a0db	-0.08233806
18	0x3c53af37	0.012920192
19	0xbd959eb5	-0.073056616
20	0xbd474795	-0.04865225
21	0xbd5de22b	-0.05417077
22	0xbd01a329	-0.031649742
23	0x3d3f6d71	0.04673523
24	0x3daa18b5	0.08305494
25	0xbd428d5d	-0.047498096
26	0xbc17b017	-0.009258292
27	0xbc0af964	-0.008482311
28	0x3c936edf	0.017997203
29	0x3ac687f7	0.0015146722
30	0xbcd3fb52	-0.025876675
31	0xbc9ca0f6	-0.01911972
32	0x3c848961	0.016178789
33	0x3d270d5b	0.04078422
34	0x3cc04009	0.023468034
35	0xbd333e50	-0.043760598
36	0xbcab0af1	-0.02087924
37	0xbda9447c	-0.082650155
38	0x3c0cafd5	0.0085868435
39	0x3d9387f3	0.07203665
40	0xbdbb327c	-0.091404885
41	0xbd373525	-0.044728417
42	0x3e0ae438	0.13563621
43	0xbcc976e7	-0.02459283
44	0x3df13ccb	0.117791735
45	0xbdde1578	-0.108439386
46	0x3cb202ac	0.02172979
47	0xbd674fb7	-0.056472506
48	0x3c8c9306	0.01715995
49	0x3dac5d2d	0.08416209
50	0xbc879407	-0.016550077
51	0x3d9dee63	0.07711484
52	0x3da40f90	0.08010781
53	0xbdcfdc42	-0.10149433
54	0xbc9189e5	-0.017765949
55	0x3cdbeb0b	0.026845476
56	0xbc7c9b26	-0.01541785
57	0xbba27a2b	-0.004958411
58	0xbb1fdd94	-0.0024393545
59	0x3dba7df5	0.09106056
60	0xbd176a04	-0.03696634
61	0x3b937c26	0.0045008836
62	0xbd6ea4e5	-0.058262724
63	0x3d36cb8f	0.044627722
64	0x3d3b8f5c	0.045791015
65	0xbd5b1642	-0.053488024
66	0x3dc893ae	0.09793793
67	0x3c9dcddc	0.0192632
68	0x3d96cfc5	0.07363848
69	0x3ae5fbe6	0.0017546385
70	0xbd3f9014	-0.046768263
71	0x3d6a0c19	0.057140443
72	0xbd9a0a30	-0.07521474
73	0xbca1daf7	-0.01975773
74	0xbc1ef7ab	-0.009702603
75	0x3ddf7ed0	0.109128594
76	0x3d9bfb74	0.0761632
77	0x3da62b85	0.081137694
78	0xbd109505	-0.035298366
79	0x3c0a8f78	0.008457057
80	0xbdd7c2e9	-0.10535223
81	0xbd2f6050	-0.04281646
82	0x3d67826a	0.056520857
83	0x3d02a307	0.031893756
84	0xbd21974c	-0.03945093
85	0xbb5eb898	-0.0033984538
86	0xbd28dde7	-0.041227248
87	0x3d97c742	0.07411052
88	0x3cb1a230	0.021683782
89	0xbd0354a0	-0.032063127
90	0x3d5751ac	0.052568123
91	0x3cb6881f	0.022281704
92	0xbca21a54	-0.019787945
93	0xbd438ff5	-0.04774471
94	0x3c52f4da	0.01287576
95	0x3c4f6c39	0.01266008
96	0xbd5df20b	-0.05418591
97	0xb9208250	-0.00015307334
98	0x3d88a44b	0.066719614
99	0xbd8b8992	-0.06813349
100	0x3d47f665	0.048818965
101	0x3ddc0f74	0.10745135
102	0xbc9fdf8c	-0.019515775
103	0xbd063005	-0.03276064
104	0x3d8c99eb	0.06865295
105	0xbd57083e	-0.052498095
106	0xbcdc9a24	-0.026928969
107	0x3d2ed120	0.042679906
108	0xbdc3b92c	-0.09556803
109	0xbdac1ead	-0.084042884
110	0x3cfb90b4	0.030708648
111	0x3c95ff33	0.018310165
112	0x3c2d7254	0.01058634
113	0xbd74b7d1	-0.059745613
114	0xbcd13bd8	-0.025541231
115	0x3c8a1c54	0.016859211
116	0x3d04fbaf	0.032466587
117	0x3ddeeeeb	0.10885414
118	0xbdb62dfc	-0.088954896
119	0x3d316552	0.043309517
120	0x3d6285a4	0.05530323
121	0xbc9c142d	-0.01905259
122	0x3dae716c	0.08517727
123	0xbd8405d6	-0.064464256
124	0xbcd4ebbb	-0.025991311
125	0xbc8a0fd9	-0.01685326
126	0xbc827f15	-0.015929738
127	0x3db1f31a	0.08688946

fc3.weight f4 [64, 128]
0	0x3d53fd6c	0.051755354
1	0xbda4cd2c	-0.08046946
2	0xbd9217ae	-0.07133423
3	0x3d3b5de3	0.045743834
4	0x3dece4f7	0.11567109
5	0x3c27433b	0.0102089
6	0x3d835499	0.0641262
7	0xbda2f206	-0.079563186
8	0xbd8f168c	-0.06986722
9	0x3d642a81	0.055704597
10	0x3da9f5ca	0.08298834
11	0xbccf7590	-0.025324613
12	0xbb9caf34	-0.004781628
13	0xbd26bfeb	-0.04071037
14	0xbd5b8ac4	-0.053599134
15	0x3de8245a	0.113350585
16	0x3dc0a207	0.09405904
17	0x3da5ff8d	0.08105383
18	0xbd3a3ab3	-0.045466136
19	0x3c20d69f	0.009816795
20	0x3ba12b2d	0.004918477
21	0x3de559fc	0.11198804
22	0xbd58ba7e	-0.052912228
23	0xbcf19932	-0.029491995
24	0x3da66624	0.081249505
25	0x3e0659e7	0.13120233
26	0x3dfd7c6c	0.12377247
27	0x3e073afa	0.13206092
28	0x3b4f469d	0.0031627782
29	0x3d83a141	0.06427241
30	0xbd479e00	-0.048734665
31	0x3da25827	0.0792697
32	0x3dc469a8	0.09590465
33	0x397ce1cc	0.00024116709
34	0xbb92a730	-0.0044754967
35	0x3e2f617d	0.17127033
36	0x3d261032	0.04054279
37	0xbd251838	-0.0403063
38	0xbd911ac2	-0.07085182
39	0x3d16aba5	0.036784787
40	0x3b1ae526	0.0023635118
41	0x3def7b20	0.11693406
42	0xbdc0c75a	-0.09413023
43	0xbd7b8287	-0.061403777
44	0x3c9dcf80	0.019263983
45	0x3b4e0fd7	0.0031442547
46	0x3de0f297	0.1098377
47	0xbd5ffc1d	-0.054683793
48	0xbcd4bd27	-0.025969101
49	0x3deec5e6	0.1165884
50	0xbe0e17b4	-0.1387623
51	0x3c98392d	0.018581951
52	0xbdabb9f9	-0.08385081
53	0x3d899dbe	0.0671954
54	0x3dfb39e0	0.12266898
55	0xbbf475ec	-0.0074603464
56	0x3d9da3fb	0.076972924
57	0x3d33db75	0.043910462
58	0x3d95caeb	0.07314094
59	0xbd4b4087	-0.049622085
60	0xbdfd18ae	-0.12358223
61	0xbe192ae2	-0.14957765
62	0x3dedac38	0.11605114
63	0x3cc1f17d	0.02367472
64	0xbcebde10	-0.028792411
65	0xbe21da77	-0.15805994
66	0xbcdc5a27	-0.026898457
67	0xbc5b1e0a	-0.013373861
68	0x3d40c416	0.047062002
69	0x3dcdaa02	0.10042192
70	0x3d284280	0.041079044
71	0x3d1912fb	0.037371617
72	0xbc87bf04	-0.016570576
73	0xbd96a35c	-0.07355377
74	0xbd853345	-0.065039195
75	0x3dc48e81	0.09597493
76	0x3cfee926	0.031117033
77	0xbc990235	-0.01867781
78	0x39f00695	0.0004578127
79	0xbd13271a	-0.035925962
80	0xbd2ea8a8	-0.042641312
81	0xbd334919	-0.043770883
82	0x3c4b8b30	0.012423322
83	0x3d7dafee	0.061935358
84	0xbe0c8684	-0.13723189
85	0x3db3d678	0.08781141
86	0x3db7806b	0.08960041
87	0x3df1d72f	0.11808621
88	0x3cba356d	0.022730554
89	0x3da718c1	0.08159018
90	0xbd85bbc9	-0.06529958
91	0x3b7b47bf	0.0038342325
92	0x3c839f19	0.016067075
93	0x3d3e8912	0.04651744
94	0x3e01a659	0.12661113
95	0xbc5049d6	-0.012712916
96	0x3d758fb7	0.05995151
97	0xbdae2b32	-0.085043326
98	0xbd29bba3	-0.04143871
99	0xbcb433d5	-0.021997372
100	0xbd0f78fc	-0.03502749
101	0xbd916359	-0.07099027
102	0x3b74554e	0.003728229
103	0x3d51d20e	0.051225714
104	0x3cd00e02	0.025397304
105	0x3e2e83cc	0.17042464
106	0x3e040fb5	0.12896617
107	0x3d191f0d	0.037383128
108	0x3d94395b	0.07237502
109	0xbd221ba9	-0.03957716
110	0x3e03fe86	0.12890062
111	0xbda56e2e	-0.08077656
112	0xbe04ae19	-0.12957038
113	0x3c5a6bba	0.013331348
114	0x3dbd834b	0.09253558
115	0x3d414946	0.04718902
116	0xbe136a2f	-0.14395975
117	0xbd07c086	-0.03314259
118	0xbd911908	-0.070848525
119	0x3d8c17a9	0.0684045
120	0x3ddc9269	0.10770113
121	0xbd5f5392	-0.05452306
122	0xbc77be92	-0.015121119
123	0xbd9581ca	-0.07300146
124	0x3d2b5922	0.04183305
125	0xbdc2c3b0	-0.09509981
126	0x3de230a4	0.11044434
127	0x3b050444	0.0020296732
128	0xbd84c99c	-0.064837664
129	0x3d95c500	0.073129654
130	0x3cf2024a	0.029542107
131	0x3db50f31	0.08840788
132	0xbd9ea4db	-0.077462874
133	0xbcddf56f	-0.02709457
134	0x3d82cef6	0.06387131
135	0x3ce22de4	0.027609773
136	0xbdff8f0d	-0.12478457
137	0xbd39f60f	-0.045400675
138	0x3d841419	0.06449146
139	0x3ddad88b	0.106858335
140	0xbda4537f	-0.08023738
141	0x3df51117	0.1196615
142	0xbdb6da05	-0.08928303
143	0xbdac2ba2	-0.0840676
144	0xbd395201	-0.04524422
145	0x3cd21c54	0.025648274
146	0x3dafefdc	0.085906714
147	0xbdfa14db	-0.12211009
148	0x3cdd4942	0.027012471
149	0xbdc23fd7	-0.09484833
150	0xbdeaefd1	-0.114715226
151	0xbcaea50f	-0.02131894
152	0xbc9950bd	-0.018715257
153	0xbd2cb957	-0.04216894
154	0x3c1ddcbc	0.009635147
155	0xbd4dc0d7	-0.050232735
156	0x3d5870b8	0.052841872
157	0xbd7927d3	-0.060828995
158	0x3dcaccba	0.0990233
159	0xbbcc493d	-0.0062343166
160	0xbd4152d0	-0.047198117
161	0x3abee248	0.0014563287
162	0x3d848dfa	0.064723924
163	0x3c4fd8f0	0.012685999
164	0xbe08f897	-0.1337608
165	0x3d0514fb	0.03249071
166	0x3d7c9c7d	0.061672676
167	0x3d339d0a	0.043850936
168	0xbc3d8863	-0.011568162
169	0xbb63daf0	-0.0034767948
170	0x3bbf4f73	0.0058383285
171	0x3d13d5c4	0.036092535
172	0x3dab7f9f	0.08373951
173	0xbc21e027	-0.009880102
174	0xbd3f2bd8	-0.046672672
175	0x3bfa7148	0.0076428987
176	0xbda19594	-0.07889858
177	0x3d04f2af	0.032458004
178	0x3c67d5c8	0.0141500905
179	0x3cf5b2e7	0.029992534
180	0x3dc411a3	0.095736764
181	0xbe21c1a2	-0.15796521
182	0x3c610371	0.013733731
183	0xbbc2ba84	-0.0059426446
184	0xbdf2c97e	-0.11854838
185	0x3e0e7d46	0.13914976
186	0xbd928344	-0.07153943
187	0xbcb7732b	-0.022393784
188	0x3de8b686	0.113629386
189	0x3ba436c0	0.0050114095
190	0xbdef0c06	-0.11672215
191	0xbd8d111a	-0.068880275
192	0xbd10cccd	-0.035351563
193	0x3dc56747	0.09638839
194	0x3da809dc	0.082050055
195	0x3d103ba6	0.035213135
196	0x3da1e2a1	0.07904554
197	0xbd665c7a	-0.056240536
198	0x3d8db3a4	0.06919029
199	0xbdf3a177	-0.11896031
200	0xbdac0a87	-0.084004454
201	0x3da04354	0.07825342
202	0x3d9fc752	0.07801689
203	0xbd2388d4	-0.03992541
204	0x3d6a54b5	0.05720969
205	0x3d858ed5	0.06521384
206	0xbd62b146	-0.055344842
207	0xbd5a809a	-0.0533453
208	0xbd329d52	-0.043607064
209	0xbdf993c7	-0.121863894
210	0x3db1b61f	0.08677315
211	0x3c2892bc	0.01028889
212	0x3dd31c1c	0.10308096
213	0xbd443b88	-0.047908336
214	0xbcb71380	-0.022348166
215	0xbdcc36b9	-0.09971375
216	0x3df11185	0.1177092
217	0xbda45768	-0.08024484
218	0x3ca3be9c	0.01998835
219	0xbdda59c8	-0.10661656
220	0xbccf2f17	-0.025291009
221	0xbc8eb904	-0.017422207
222	0xbdaed1ff	-0.08536147
223	0x3bab09e2	0.005219684
224	0x3c2d16ac	0.010564487
225	0x3e13a26d	0.1441743
226	0x3ce87f0b	0.028380891
227	0xbce96eb4	-0.02849517
228	0xbba9b5e9	-0.005179156
229	0x3c8c6d19	0.017141866
230	0xbcc46f99	-0.023978995
231	0x3db987f3	0.090591334
232	0xbd3403ab	-0.04394881
233	0xbdbc5e93	-0.09197726
234	0xbc55734f	-0.01302798
235	0x3db672c2	0.08908607
236	0xbd8a3707	-0.06748777
237	0x3e02948d	0.1275198
238	0x3cd91971	0.02650139
239	0x3dd1c52a	0.10242684
240	0x3e1a3a39	0.15061273
241	0xbb82df8b	-0.0039939336
242	0x3cdad846	0.026714455
243	0xbd604882	-0.05475665
244	0x3c6bba18	0.01438763
245	0x3d9de7ae	0.07710205
246	0x3de0234f	0.109442346
247	0xbcf2989d	-0.029613787
248	0xbd7e9202	-0.062150963
249	0x3d18b32e	0.037280254
250	0x3d69d1a2	0.057084687
251	0x3b6a80c4	0.0035782317
252	0xbdc8247b	-0.09772583
253	0x3d9febd5	0.07808653
254	0xbd36f9d8	-0.044671863
255	0x3e1a686e	0.150789

fc3.bias f4 [64]
0	0xbb14db63	-0.0022713772
1	0x3d147770	0.036246717
2	0x3c9cd4a7	0.01914437
3	0xbd6655b9	-0.056234095
4	0x3d9fb6b9	0.077985235
5	0xbdbc8e6c	-0.09206852
6	0x3da19b5d	0.07890961
7	0x3d9408d4	0.07228246
8	0x3d4d15ef	0.050069746
9	0x3b0663fd	0.0020506375
10	0xbc9f0bf1	-0.019414874
11	0x3d6be18f	0.057588156
12	0x3d8b648b	0.068062864
13	0x3d83e940	0.06440973
14	0x3d20a85a	0.039223053
15	0x3dab33c5	0.08359484
16	0x3d8a98eb	0.06767448
17	0x3d5462c1	0.05185199
18	0x3d1c0a16	0.038095556
19	0x3b291b3d	0.0025803589
20	0x3e08f278	0.13373744
21	0x3dc06fea	0.09396346
22	0xbcda15f7	-0.026621802
23	0x3bcffac3	0.006347032
24	0x3c0cb0a5	0.008587037
25	0x3bdba4df	0.006703004
26	0x3d1b1b44	0.0378678
27	0x3df9102a	0.12161286
28	0x3dcd4a83	0.100239776
29	0x3dd5b658	0.1043517
30	0x3ce3dc96	0.027815145
31	0xbcf2b60e	-0.029627826
32	0x3c986991	0.018605025
33	0x3dd77f30	0.10522306
34	0xbc5900ab	-0.013244788
35	0xbcf5f39e	-0.030023392
36	0xbdb8def9	-0.09026904
37	0xbcd406dd	-0.025882179
38	0x3b8bb389	0.0042633456
39	0x3d8762c8	0.06610638
40	0x3c820d40	0.015875459
41	0x3d8a867c	0.06763932
42	0x3d9207f8	0.07130426
43	0x3dbd9ffe	0.09259032
44	0xbc7f60b7	-0.015587023
45	0x3d2c1838	0.042015284
46	0xbc81af73	-0.015830731
47	0xbdb16ef7	-0.08663743
48	0x3e081865	0.13290556
49	0x3bd0cf06	0.0063723354
50	0xbcc09964	-0.023510642
51	0x3ded1200	0.11575699
52	0x3dcb25fd	0.09919355
53	0x3d82c7e0	0.063857794
54	0x3db1b031	0.08676184
55	0xbc24ef09	-0.010066756
56	0x3df358ca	0.118821695
57	0x3d415d79	0.047208283
58	0x3d975504	0.07389262
59	0xbdcb789b	-0.09935113
60	0xbd3be7bb	-0.045875292
61	0x3d991ab3	0.074757956
62	0x3d836a30	0.06416738
63	0xbb584c79	-0.0033004566

fc4.weight f4 [32, 64]
0	0xbc311e49	-0.010810443
1	0xbd4d1f45	-0.05007865
2	0xbd81bf0b	-0.06335267
3	0x3cd7e893	0.026356017
4	0x3e0c32a5	0.13691194
5	0xbda69de7	-0.08135586
6	0xbdf19c60	-0.11797404
7	0x3d8d8394	0.06909862
8	0x3cadf300	0.021234035
9	0x3d7fd2b7	0.062456813
10	0xbdbabf0c	-0.091184705
11	0x3cc08ab3	0.023503637
12	0xbd8428dd	-0.064531066
13	0x3cd9f272	0.026604865
14	0x3e010e68	0.12603152
15	0xbdc54df2	-0.096340075
16	0x3b3f9c37	0.0029237398
17	0xbca44d2a	-0.020056326
18	0xbbc526e4	-0.006016599
19	0x3c8a8791	0.016910346
20	0x3d6006e1	0.05469406
21	0x3da81eee	0.08209024
22	0xbd8d5b79	-0.06902213
23	0x3e26de7a	0.16295806
24	0xbdc07c97	-0.093987636
25	0x3dd5ce27	0.10439711
26	0xbd5ea2ae	-0.054354362
27	0xbbf38986	-0.0074321656
28	0x3d426209	0.047456775
29	0xbdc9282d	-0.09822116
30	0x3b8454e2	0.004038439
31	0x3da47186	0.080294654
32	0x3e14f556	0.14546713
33	0x3e399a45	0.18125255
34	0x3ddc850a	0.10767563
35	0x3e069ee2	0.13146546
36	0x3dc83c91	0.09777177
37	0x3c4a64fd	0.012353179
38	0xbdc5f696	-0.09666173
39	0x3dc6d487	0.09708505
40	0x3e294b7b	0.165327
41	0x3df4408f	0.11926376
42	0xbc3e7ef0	-0.011626944
43	0x3da6ae3a	0.081387
44	0x3d3a060c	0.045415923
45	0x3ddd6ff4	0.10812369
46	0x3d737acf	0.05944329
47	0xbd102e1d	-0.035200227
48	0xbdc98f6e	-0.0984181
49	0x3e0043aa	0.12525812
50	0xbdb5cc6a	-0.088768795
51	0xbd6565c2	-0.056005247
52	0x3bcc8be6	0.006242263
53	0xbe16a99b	-0.14713137
54	0x3c7606be	0.015016256
55	0x3df2fc24	0.11864498
56	0x3d1a11f4	0.037614778
57	0xbdfd1352	-0.12357201
58	0x3cc73f32	0.024322126
59	0xbc99494b	-0.018711707
60	0x3df64eed	0.12026773
61	0x3dc8f3e6	0.09812145
62	0x3d30b857	0.04314455
63	0x3db8f6ac	0.09031424
64	0xbe032f42	-0.12810996
65	0x3deaa64e	0.11457501
66	0xbc26fd25	-0.01019219
67	0xbd843d83	-0.06457045
68	0x3d266995	0.040628035
69	0xbc8c83ae	-0.017152634
70	0x3e4e4a35	0.20145495
71	0x3df26368	0.118353665
72	0x3d1914be	0.037373297
73	0xbdc46c2f	-0.09590947
74	0x3c31ff84	0.010864142
75	0x3c0ee2e0	0.008721083
76	0xbdb3f2de	-0.087865576
77	0x3c8d5ee7	0.017257167
78	0xbd62d29d	-0.055376638
79	0x3dbbcfff	0.091705315
80	0x3d32fb79	0.043696854
81	0xbce4c162	-0.027924243
82	0xbccdd7c7	-0.025127305
83	0xbdc83e1d	-0.09777472
84	0x3dd4be4c	0.10387859
85	0x3dcb6598	0.09931487
86	0xbdda9e03	-0.106746696
87	0xbc236aa2	-0.009974154
88	0x3e67e639	0.22646417
89	0xbd2a7109	-0.041611705
90	0x3c274964	0.010210369
91	0x3c8116f9	0.015758025
92	0xbcc42c33	-0.023946857
93	0x3a8202aa	0.0009919007
94	0xbe0db9d7	-0.13840424
95	0x3cba4e18	0.022742316
96	0xbd58086f	-0.052742418
97	0x3d3b5103	0.045731556
98	0x3d859f2e	0.06524502
99	0xbdd597c6	-0.10429339
100	0x3d0c44ba	0.03424523
101	0xbda4a74a	-0.0803972
102	0x3c9899bf	0.018628
103	0xbd784b6f	-0.060618814
104	0x3c8b7ef9	0.017028319
105	0x3ba292de	0.0049613556
106	0xbd285f63	-0.041106593
107	0xbd49a3b0	-0.04922837
108	0x3e4ea36f	0.20179532
109	0xbc8a00d8	-0.016846105
110	0x3e288241	0.16455938
111	0xbb9dc8c3	-0.0048151924
112	0x3c3ec196	0.011642834
113	0x3dbc444d	0.09192715
114	0x3e1b3034	0.15155107
115	0x3d642541	0.05569959
116	0x3e2daea2	0.16961148
117	0x3d30942c	0.043110058
118	0xb9a11a40	-0.0003072787
119	0xbc347346	-0.011013811
120	0x3df57f3a	0.11987157
121	0x3e23df87	0.16003238
122	0x3d9b50b1	0.0758375
123	0xbd8fb84d	-0.070175745
124	0x3cef9d7a	0.029249895
125	0x3cf15c8d	0.029463077
126	0xbdd7de3b	-0.10540434
127	0xbdda94e7	-0.10672932
128	0xbcbd1a72	-0.0230839
129	0xbd8127a9	-0.06306393
130	0xbd436e26	-0.047712468
131	0x3e329293	0.17438726
132	0xbd0c01d8	-0.034181446
133	0xbd5f807d	-0.054565895
134	0xbd546a57	-0.051859226
135	0x3e048675	0.12941916
136	0x3cb7c460	0.022432506
137	0x3e07e39e	0.13270423
138	0xbcd2ec2f	-0.025747387
139	0x3d19086f	0.03736156
140	0x3b823360	0.0039734095
141	0x3c8e7ed8	0.017394468
142	0x3dc44eeb	0.09585365
143	0x3d06b52b	0.03288762
144	0xbd91ff33	-0.071287535
145	0x3da69475	0.08133785
146	0xbcde2496	-0.027117055
147	0x3d3fce53	0.046827625
148	0xbdac1025	-0.08401517
149	0x3dbf130e	0.09329806
150	0xbd5de3d9	-0.05417237
151	0x3d2107eb	0.03931419
152	0xbcf51407	-0.029916776
153	0xbaae442b	-0.0013295462
154	0x3cafb55f	0.02144879
155	0xbbbe2dfd	-0.005803822
156	0xbcaecbbd	-0.021337384
157	0xbad5de8f	-0.0016316938
158	0x3dd7792f	0.10521161
159	0x3caeb3fa	0.021326054
160	0x3ded9d66	0.11602287
161	0x3c0f2087	0.0087357825
162	0x3d99504b	0.07486018
163	0x3d3f2389	0.04666475
164	0x3d3c4ecd	0.045973588
165	0x3dfe631e	0.12421249
166	0xbd907417	-0.070533924
167	0x3dba6409	0.091011114
168	0x3d930d2d	0.071802475
169	0xba036fdc	-0.0005013922
170	0x3e1ae82b	0.15127628
171	0x3ddec74b	0.10877856
172	0xbd6fabd1	-0.058513466
173	0x3db422b5	0.08795682
174	0xbd81e128	-0.06341773
175	0xbc945825	-0.018108437
176	0x3d248c2d	0.040172745
177	0x3e0cf647	0.13765822
178	0xbdd7a13b	-0.10528799
179	0xbd55a8d3	-0.052162956
180	0xbdbcf3d7	-0.09226196
181	0xbdbfeaaa	-0.093709305
182	0xbd5d2692	-0.05399186
183	0xbc4d8e49	-0.01254613
184	0x3d80ab62	0.06282689
185	0x3d420488	0.047367603
186	0x3e0745b0	0.13210177
187	0xbdaa393d	-0.083116986
188	0x3d602748	0.05472496
189	0x3da01711	0.078168996
190	0x3c999701	0.018748762
191	0xbda95862	-0.08268811
192	0x3e04c9f3	0.12967663
193	0x3db708ab	0.089372
194	0xbdcf6e99	-0.10128517
195	0x3db96576	0.09052555
196	0x3c26354f	0.010144546
197	0xbb938406	-0.0045018224
198	0xbcf925a6	-0.03041346
199	0x3e077d0d	0.13231297
200	0x3d81ede3	0.063442014
201	0x3d325ae3	0.043543708
202	0xbd22ef6b	-0.039779108
203	0x3e21c100	0.1579628
204	0xbd9d886f	-0.07692038
205	0xbb4effba	-0.003158553
206	0xbc07ef93	-0.008296865
207	0x3d604d40	0.05476117
208	0xbb893b86	-0.004188004
209	0xbc131092	-0.008976119
210	0x3dc8de74	0.098080546
211	0x3e27d691	0.16390444
212	0xbd950842	-0.07276966
213	0x3d4e805a	0.050415374
214	0x3cc2cafe	0.023778435
215	0x3dd3fbdf	0.10350775
216	0xbddf19c5	-0.10893587
217	0xbd77e50b	-0.060521167
218	0x3d34871a	0.044074155
219	0x3d1e230b	0.03860764
220	0x3e3a3004	0.18182379
221	0xbdea4a7d	-0.11439989
222	0xbc6cfe8c	-0.014464986
223	0xbcb1076b	-0.021609982
224	0xbdb4cbb4	-0.08827916
225	0x3e20b7ac	0.15695065
226	0x3d5d4dff	0.05402946
227	0x3d3e9a3f	0.04653382
228	0x3d306101	0.04306126
229	0x3dbc8448	0.09204918
230	0xbd00a119	-0.031403635
231	0x3e13a53f	0.14418505
232	0x3e20f064	0.15716702
233	0x3e087fc8	0.13329995
234	0x3cd363f3	0.025804495
235	0x3e008fa0	0.12554789
236	0x3ce1b488	0.027551904
237	0x3e0adc4d	0.135606
238	0xbdfff450	-0.12497771
239	0x3d7b3915	0.061333735
240	0x3da04b28	0.07826835
241	0x3d18b5f2	0.03728289
242	0xbdc9d10f	-0.09854328
243	0xbdb4a84b	-0.08821162
244	0xbe12d804	-0.14340216
245	0xbdafea64	-0.08589628
246	0xbdc3be7e	-0.09557818
247	0x3ccd0493	0.025026595
248	0xbb8d54b0	-0.004313074
249	0x3d65ba41	0.05608583
250	0x3d2b18f2	0.041771837
251	0xbdcd7a17	-0.100330524
252	0xbd309b3a	-0.043116786
253	0x3e2b930f	0.16755317
254	0x3db6fa40	0.0893445
255	0x3e001636	0.12508473

fc4.bias f4 [32]
0	0x3da3229a	0.07965584
1	0xbc97c615	-0.01852707
2	0xbda94dac	-0.08266768
3	0xbd7a3d37	-0.061093535
4	0x3d27b02e	0.040939502
5	0x3d0d733b	0.03453372
6	0xbc6c4d72	-0.014422761
7	0xbda162a0	-0.07880139
8	0x3dc15a01	0.09440995
9	0x3df6c312	0.120489255
10	0x3d5a109d	0.0532385
11	0x3d194b84	0.037425533
12	0xbd94dbab	-0.07268461
13	0x3ca2931d	0.01984554
14	0x3dd0b157	0.10190075
15	0xbd670da5	-0.056409497
16	0x3d2116da	0.039328434
17	0x3db23dfb	0.08703228
18	0x3ded5c72	0.11589898
19	0x3e34760a	0.17623153
20	0x3d3f88ad	0.046761204
21	0x3dccc1df	0.099979155
22	0xbe07a4e7	-0.13246499
23	0x3e2c77a9	0.16842522
24	0xbc39d3da	-0.011342013
25	0xbbffef6d	-0.007810524
26	0xbcc2e1e1	-0.023789348
27	0x3da15153	0.078768395
28	0xbddd3b42	-0.10802318
29	0x3b9697cd	0.004595733
30	0xbcd91252	-0.026497994
31	0xbd2b19b9	-0.041772578

fc5.weight f4 [1, 32]
0	0x3e65f3dd	0.22456308
1	0xbe3819fa	-0.1797866
2	0x3e181042	0.14849952
3	0x3e4d1f1d	0.200314
4	0xbd549a67	-0.051905062
5	0x3e69ba38	0.22824943
6	0xbdcc3896	-0.099717304
7	0xbdffad7c	-0.124842614
8	0xbe79f36b	-0.24409263
9	0xbe37f248	-0.17963517
10	0x3db13688	0.08652979
11	0x3e201a1c	0.1563496
12	0x3dda2dec	0.1065329
13	0x3d28ab3f	0.041178938
14	0xbe5ad826	-0.21371517
15	0x3dd9c2e2	0.10632874
16	0x3e1b7144	0.15179926
17	0x3e530f3c	0.2061128
18	0xbe3eea9c	-0.18644184
19	0xbddfbbaf	-0.1092447
20	0x3dd1b143	0.10238888
21	0x3e28b500	0.16475296
22	0x3d16d488	0.03682378
23	0xbe73394b	-0.23752324
24	0xbe29c4d1	-0.16578986
25	0xbe313ff3	-0.17309551
26	0x3d64a036	0.05581685
27	0x3e00bcc3	0.12572007
28	0xbd0e8f6b	-0.034804743
29	0xbe87d0b6	-0.2652642
30	0x3e156bff	0.14591978
31	0x3e239ec3	0.15978532
